…
2022-06-07 12:40:34,320   INFO  Database filter by difficulty Pedestrian: 2168 => 2075
2022-06-07 12:40:34,322   INFO  Database filter by difficulty Cyclist: 705 => 581
2022-06-07 12:40:34,334   INFO  Loading KITTI dataset
2022-06-07 12:40:34,496   INFO  Total samples for KITTI dataset: 3712
2022-06-07 12:40:40,079   INFO  DistributedDataParallel(
  (module): PVRCNN(
    (vfe): MeanVFE()
    (backbone_3d): VoxelBackBone8xFusionv2(
      (conv_input): SparseSequential(
        (0): SubMConv3d(4, 16, kernel_size=[3, 3, 3], stride=[1, 1, 1], padding=[1, 1, 1], dilation=[1, 1, 1], output_padding=[0, 0, 0], bias=False, algo=ConvAlgo.MaskImplicitGemm)
        (1): BatchNorm1d(16, eps=0.001, momentum=0.01, affine=True, track_running_stats=True)
        (2): ReLU()
      )
      (semseg): PyramidFeat2D(
        (ifn): SemDeepLabV3(
          (model): DeepLabV3(
            (backbone): IntermediateLayerGetter(
              (conv1): Conv2d(3, 64, kernel_size=(7, 7), stride=(2, 2), padding=(3, 3), bias=False)
              (bn1): BatchNorm2d(64, eps=1e-05, momentum=0.1, affine=True, track_running_stats=True)
              (relu): ReLU(inplace=True)
              (maxpool): MaxPool2d(kernel_size=3, stride=2, padding=1, dilation=1, ceil_mode=False)
              (layer1): Sequential(
                (0): Bottleneck(
                  (conv1): Conv2d(64, 64, kernel_size=(1, 1), stride=(1, 1), bias=False)
                  (bn1): BatchNorm2d(64, eps=1e-05, momentum=0.1, affine=True, track_running_stats=True)
                  (conv2): Conv2d(64, 64, kernel_size=(3, 3), stride=(1, 1), padding=(1, 1), bias=False)
                  (bn2): BatchNorm2d(64, eps=1e-05, momentum=0.1, affine=True, track_running_stats=True)
                  (conv3): Conv2d(64, 256, kernel_size=(1, 1), stride=(1, 1), bias=False)
                  (bn3): BatchNorm2d(256, eps=1e-05, momentum=0.1, affine=True, track_running_stats=True)
                  (relu): ReLU(inplace=True)
                  (downsample): Sequential(
                    (0): Conv2d(64, 256, kernel_size=(1, 1), stride=(1, 1), bias=False)
                    (1): BatchNorm2d(256, eps=1e-05, momentum=0.1, affine=True, track_running_stats=True)
                  )
                )
                (1): Bottleneck(
                  (conv1): Conv2d(256, 64, kernel_size=(1, 1), stride=(1, 1), bias=False)
                  (bn1): BatchNorm2d(64, eps=1e-05, momentum=0.1, affine=True, track_running_stats=True)
                  (conv2): Conv2d(64, 64, kernel_size=(3, 3), stride=(1, 1), padding=(1, 1), bias=False)
                  (bn2): BatchNorm2d(64, eps=1e-05, momentum=0.1, affine=True, track_running_stats=True)
                  (conv3): Conv2d(64, 256, kernel_size=(1, 1), stride=(1, 1), bias=False)
                  (bn3): BatchNorm2d(256, eps=1e-05, momentum=0.1, affine=True, track_running_stats=True)
                  (relu): ReLU(inplace=True)
                )
                (2): Bottleneck(
                  (conv1): Conv2d(256, 64, kernel_size=(1, 1), stride=(1, 1), bias=False)
                  (bn1): BatchNorm2d(64, eps=1e-05, momentum=0.1, affine=True, track_running_stats=True)
                  (conv2): Conv2d(64, 64, kernel_size=(3, 3), stride=(1, 1), padding=(1, 1), bias=False)
                  (bn2): BatchNorm2d(64, eps=1e-05, momentum=0.1, affine=True, track_running_stats=True)
                  (conv3): Conv2d(64, 256, kernel_size=(1, 1), stride=(1, 1), bias=False)
                  (bn3): BatchNorm2d(256, eps=1e-05, momentum=0.1, affine=True, track_running_stats=True)
                  (relu): ReLU(inplace=True)
                )
              )
              (layer2): Sequential(
                (0): Bottleneck(
                  (conv1): Conv2d(256, 128, kernel_size=(1, 1), stride=(1, 1), bias=False)
                  (bn1): BatchNorm2d(128, eps=1e-05, momentum=0.1, affine=True, track_running_stats=True)
                  (conv2): Conv2d(128, 128, kernel_size=(3, 3), stride=(2, 2), padding=(1, 1), bias=False)
                  (bn2): BatchNorm2d(128, eps=1e-05, momentum=0.1, affine=True, track_running_stats=True)
                  (conv3): Conv2d(128, 512, kernel_size=(1, 1), stride=(1, 1), bias=False)
                  (bn3): BatchNorm2d(512, eps=1e-05, momentum=0.1, affine=True, track_running_stats=True)
                  (relu): ReLU(inplace=True)
                  (downsample): Sequential(
                    (0): Conv2d(256, 512, kernel_size=(1, 1), stride=(2, 2), bias=False)
                    (1): BatchNorm2d(512, eps=1e-05, momentum=0.1, affine=True, track_running_stats=True)
                  )
                )
                (1): Bottleneck(
                  (conv1): Conv2d(512, 128, kernel_size=(1, 1), stride=(1, 1), bias=False)
                  (bn1): BatchNorm2d(128, eps=1e-05, momentum=0.1, affine=True, track_running_stats=True)
                  (conv2): Conv2d(128, 128, kernel_size=(3, 3), stride=(1, 1), padding=(1, 1), bias=False)
                  (bn2): BatchNorm2d(128, eps=1e-05, momentum=0.1, affine=True, track_running_stats=True)
                  (conv3): Conv2d(128, 512, kernel_size=(1, 1), stride=(1, 1), bias=False)
                  (bn3): BatchNorm2d(512, eps=1e-05, momentum=0.1, affine=True, track_running_stats=True)
                  (relu): ReLU(inplace=True)
                )
                (2): Bottleneck(
                  (conv1): Conv2d(512, 128, kernel_size=(1, 1), stride=(1, 1), bias=False)
                  (bn1): BatchNorm2d(128, eps=1e-05, momentum=0.1, affine=True, track_running_stats=True)
                  (conv2): Conv2d(128, 128, kernel_size=(3, 3), stride=(1, 1), padding=(1, 1), bias=False)
                  (bn2): BatchNorm2d(128, eps=1e-05, momentum=0.1, affine=True, track_running_stats=True)
                  (conv3): Conv2d(128, 512, kernel_size=(1, 1), stride=(1, 1), bias=False)
                  (bn3): BatchNorm2d(512, eps=1e-05, momentum=0.1, affine=True, track_running_stats=True)
                  (relu): ReLU(inplace=True)
                )
                (3): Bottleneck(
                  (conv1): Conv2d(512, 128, kernel_size=(1, 1), stride=(1, 1), bias=False)
                  (bn1): BatchNorm2d(128, eps=1e-05, momentum=0.1, affine=True, track_running_stats=True)
                  (conv2): Conv2d(128, 128, kernel_size=(3, 3), stride=(1, 1), padding=(1, 1), bias=False)
                  (bn2): BatchNorm2d(128, eps=1e-05, momentum=0.1, affine=True, track_running_stats=True)
                  (conv3): Conv2d(128, 512, kernel_size=(1, 1), stride=(1, 1), bias=False)
                  (bn3): BatchNorm2d(512, eps=1e-05, momentum=0.1, affine=True, track_running_stats=True)
                  (relu): ReLU(inplace=True)
                )
              )
              (layer3): Sequential(
                (0): Bottleneck(
                  (conv1): Conv2d(512, 256, kernel_size=(1, 1), stride=(1, 1), bias=False)
                  (bn1): BatchNorm2d(256, eps=1e-05, momentum=0.1, affine=True, track_running_stats=True)
                  (conv2): Conv2d(256, 256, kernel_size=(3, 3), stride=(1, 1), padding=(1, 1), bias=False)
                  (bn2): BatchNorm2d(256, eps=1e-05, momentum=0.1, affine=True, track_running_stats=True)
                  (conv3): Conv2d(256, 1024, kernel_size=(1, 1), stride=(1, 1), bias=False)
                  (bn3): BatchNorm2d(1024, eps=1e-05, momentum=0.1, affine=True, track_running_stats=True)
                  (relu): ReLU(inplace=True)
                  (downsample): Sequential(
                    (0): Conv2d(512, 1024, kernel_size=(1, 1), stride=(1, 1), bias=False)
                    (1): BatchNorm2d(1024, eps=1e-05, momentum=0.1, affine=True, track_running_stats=True)
                  )
                )
                (1): Bottleneck(
                  (conv1): Conv2d(1024, 256, kernel_size=(1, 1), stride=(1, 1), bias=False)
                  (bn1): BatchNorm2d(256, eps=1e-05, momentum=0.1, affine=True, track_running_stats=True)
                  (conv2): Conv2d(256, 256, kernel_size=(3, 3), stride=(1, 1), padding=(2, 2), dilation=(2, 2), bias=False)
                  (bn2): BatchNorm2d(256, eps=1e-05, momentum=0.1, affine=True, track_running_stats=True)
                  (conv3): Conv2d(256, 1024, kernel_size=(1, 1), stride=(1, 1), bias=False)
                  (bn3): BatchNorm2d(1024, eps=1e-05, momentum=0.1, affine=True, track_running_stats=True)
                  (relu): ReLU(inplace=True)
                )
                (2): Bottleneck(
                  (conv1): Conv2d(1024, 256, kernel_size=(1, 1), stride=(1, 1), bias=False)
                  (bn1): BatchNorm2d(256, eps=1e-05, momentum=0.1, affine=True, track_running_stats=True)
                  (conv2): Conv2d(256, 256, kernel_size=(3, 3), stride=(1, 1), padding=(2, 2), dilation=(2, 2), bias=False)
                  (bn2): BatchNorm2d(256, eps=1e-05, momentum=0.1, affine=True, track_running_stats=True)
                  (conv3): Conv2d(256, 1024, kernel_size=(1, 1), stride=(1, 1), bias=False)
                  (bn3): BatchNorm2d(1024, eps=1e-05, momentum=0.1, affine=True, track_running_stats=True)
                  (relu): ReLU(inplace=True)
                )
                (3): Bottleneck(
                  (conv1): Conv2d(1024, 256, kernel_size=(1, 1), stride=(1, 1), bias=False)
                  (bn1): BatchNorm2d(256, eps=1e-05, momentum=0.1, affine=True, track_running_stats=True)
                  (conv2): Conv2d(256, 256, kernel_size=(3, 3), stride=(1, 1), padding=(2, 2), dilation=(2, 2), bias=False)
                  (bn2): BatchNorm2d(256, eps=1e-05, momentum=0.1, affine=True, track_running_stats=True)
                  (conv3): Conv2d(256, 1024, kernel_size=(1, 1), stride=(1, 1), bias=False)
                  (bn3): BatchNorm2d(1024, eps=1e-05, momentum=0.1, affine=True, track_running_stats=True)
                  (relu): ReLU(inplace=True)
                )
                (4): Bottleneck(
                  (conv1): Conv2d(1024, 256, kernel_size=(1, 1), stride=(1, 1), bias=False)
                  (bn1): BatchNorm2d(256, eps=1e-05, momentum=0.1, affine=True, track_running_stats=True)
                  (conv2): Conv2d(256, 256, kernel_size=(3, 3), stride=(1, 1), padding=(2, 2), dilation=(2, 2), bias=False)
                  (bn2): BatchNorm2d(256, eps=1e-05, momentum=0.1, affine=True, track_running_stats=True)
                  (conv3): Conv2d(256, 1024, kernel_size=(1, 1), stride=(1, 1), bias=False)
                  (bn3): BatchNorm2d(1024, eps=1e-05, momentum=0.1, affine=True, track_running_stats=True)
                  (relu): ReLU(inplace=True)
                )
                (5): Bottleneck(
                  (conv1): Conv2d(1024, 256, kernel_size=(1, 1), stride=(1, 1), bias=False)
                  (bn1): BatchNorm2d(256, eps=1e-05, momentum=0.1, affine=True, track_running_stats=True)
                  (conv2): Conv2d(256, 256, kernel_size=(3, 3), stride=(1, 1), padding=(2, 2), dilation=(2, 2), bias=False)
                  (bn2): BatchNorm2d(256, eps=1e-05, momentum=0.1, affine=True, track_running_stats=True)
                  (conv3): Conv2d(256, 1024, kernel_size=(1, 1), stride=(1, 1), bias=False)
                  (bn3): BatchNorm2d(1024, eps=1e-05, momentum=0.1, affine=True, track_running_stats=True)
                  (relu): ReLU(inplace=True)
                )
              )
              (layer4): Sequential(
                (0): Bottleneck(
                  (conv1): Conv2d(1024, 512, kernel_size=(1, 1), stride=(1, 1), bias=False)
                  (bn1): BatchNorm2d(512, eps=1e-05, momentum=0.1, affine=True, track_running_stats=True)
                  (conv2): Conv2d(512, 512, kernel_size=(3, 3), stride=(1, 1), padding=(2, 2), dilation=(2, 2), bias=False)
                  (bn2): BatchNorm2d(512, eps=1e-05, momentum=0.1, affine=True, track_running_stats=True)
                  (conv3): Conv2d(512, 2048, kernel_size=(1, 1), stride=(1, 1), bias=False)
                  (bn3): BatchNorm2d(2048, eps=1e-05, momentum=0.1, affine=True, track_running_stats=True)
                  (relu): ReLU(inplace=True)
                  (downsample): Sequential(
                    (0): Conv2d(1024, 2048, kernel_size=(1, 1), stride=(1, 1), bias=False)
                    (1): BatchNorm2d(2048, eps=1e-05, momentum=0.1, affine=True, track_running_stats=True)
                  )
                )
                (1): Bottleneck(
                  (conv1): Conv2d(2048, 512, kernel_size=(1, 1), stride=(1, 1), bias=False)
                  (bn1): BatchNorm2d(512, eps=1e-05, momentum=0.1, affine=True, track_running_stats=True)
                  (conv2): Conv2d(512, 512, kernel_size=(3, 3), stride=(1, 1), padding=(4, 4), dilation=(4, 4), bias=False)
                  (bn2): BatchNorm2d(512, eps=1e-05, momentum=0.1, affine=True, track_running_stats=True)
                  (conv3): Conv2d(512, 2048, kernel_size=(1, 1), stride=(1, 1), bias=False)
                  (bn3): BatchNorm2d(2048, eps=1e-05, momentum=0.1, affine=True, track_running_stats=True)
                  (relu): ReLU(inplace=True)
                )
                (2): Bottleneck(
                  (conv1): Conv2d(2048, 512, kernel_size=(1, 1), stride=(1, 1), bias=False)
                  (bn1): BatchNorm2d(512, eps=1e-05, momentum=0.1, affine=True, track_running_stats=True)
                  (conv2): Conv2d(512, 512, kernel_size=(3, 3), stride=(1, 1), padding=(4, 4), dilation=(4, 4), bias=False)
                  (bn2): BatchNorm2d(512, eps=1e-05, momentum=0.1, affine=True, track_running_stats=True)
                  (conv3): Conv2d(512, 2048, kernel_size=(1, 1), stride=(1, 1), bias=False)
                  (bn3): BatchNorm2d(2048, eps=1e-05, momentum=0.1, affine=True, track_running_stats=True)
                  (relu): ReLU(inplace=True)
                )
              )
            )
            (classifier): DeepLabHead(
              (0): ASPP(
                (convs): ModuleList(
                  (0): Sequential(
                    (0): Conv2d(2048, 256, kernel_size=(1, 1), stride=(1, 1), bias=False)
                    (1): BatchNorm2d(256, eps=1e-05, momentum=0.1, affine=True, track_running_stats=True)
                    (2): ReLU()
                  )
                  (1): ASPPConv(
                    (0): Conv2d(2048, 256, kernel_size=(3, 3), stride=(1, 1), padding=(12, 12), dilation=(12, 12), bias=False)
                    (1): BatchNorm2d(256, eps=1e-05, momentum=0.1, affine=True, track_running_stats=True)
                    (2): ReLU()
                  )
                  (2): ASPPConv(
                    (0): Conv2d(2048, 256, kernel_size=(3, 3), stride=(1, 1), padding=(24, 24), dilation=(24, 24), bias=False)
                    (1): BatchNorm2d(256, eps=1e-05, momentum=0.1, affine=True, track_running_stats=True)
                    (2): ReLU()
                  )
                  (3): ASPPConv(
                    (0): Conv2d(2048, 256, kernel_size=(3, 3), stride=(1, 1), padding=(36, 36), dilation=(36, 36), bias=False)
                    (1): BatchNorm2d(256, eps=1e-05, momentum=0.1, affine=True, track_running_stats=True)
                    (2): ReLU()
                  )
                  (4): ASPPPooling(
                    (0): AdaptiveAvgPool2d(output_size=1)
                    (1): Conv2d(2048, 256, kernel_size=(1, 1), stride=(1, 1), bias=False)
                    (2): BatchNorm2d(256, eps=1e-05, momentum=0.1, affine=True, track_running_stats=True)
                    (3): ReLU()
                  )
                )
                (project): Sequential(
                  (0): Conv2d(1280, 256, kernel_size=(1, 1), stride=(1, 1), bias=False)
                  (1): BatchNorm2d(256, eps=1e-05, momentum=0.1, affine=True, track_running_stats=True)
                  (2): ReLU()
                  (3): Dropout(p=0.5, inplace=False)
                )
              )
              (1): Conv2d(256, 256, kernel_size=(3, 3), stride=(1, 1), padding=(1, 1), bias=False)
              (2): BatchNorm2d(256, eps=1e-05, momentum=0.1, affine=True, track_running_stats=True)
              (3): ReLU()
              (4): Conv2d(256, 21, kernel_size=(1, 1), stride=(1, 1))
            )
          )
        )
        (reduce_blocks): ModuleList(
          (0): BasicBlock2D(
            (conv): Conv2d(256, 16, kernel_size=(1, 1), stride=(1, 1), bias=False)
            (bn): BatchNorm2d(16, eps=1e-05, momentum=0.1, affine=True, track_running_stats=True)
            (relu): ReLU(inplace=True)
          )
        )
      )
      (actr): ACTR(
        (transformer): DeformableTransformerACTR(
          (encoder): DeformableTransformerEncoder(
            (layers): ModuleList(
              (0): DeformableTransformerEncoderLayer(
                (self_attn): MSDeformAttn(
                  (sampling_offsets): Linear(in_features=64, out_features=128, bias=True)
                  (attention_weights): Linear(in_features=64, out_features=64, bias=True)
                  (value_proj): Linear(in_features=64, out_features=64, bias=True)
                  (output_proj): Linear(in_features=64, out_features=64, bias=True)
                )
                (dropout1): Dropout(p=0.1, inplace=False)
                (norm1): LayerNorm((64,), eps=1e-05, elementwise_affine=True)
                (linear1): Linear(in_features=64, out_features=1024, bias=True)
                (dropout2): Dropout(p=0.1, inplace=False)
                (linear2): Linear(in_features=1024, out_features=64, bias=True)
                (dropout3): Dropout(p=0.1, inplace=False)
                (norm2): LayerNorm((64,), eps=1e-05, elementwise_affine=True)
              )
              (1): DeformableTransformerEncoderLayer(
                (self_attn): MSDeformAttn(
                  (sampling_offsets): Linear(in_features=64, out_features=128, bias=True)
                  (attention_weights): Linear(in_features=64, out_features=64, bias=True)
                  (value_proj): Linear(in_features=64, out_features=64, bias=True)
                  (output_proj): Linear(in_features=64, out_features=64, bias=True)
                )
                (dropout1): Dropout(p=0.1, inplace=False)
                (norm1): LayerNorm((64,), eps=1e-05, elementwise_affine=True)
                (linear1): Linear(in_features=64, out_features=1024, bias=True)
                (dropout2): Dropout(p=0.1, inplace=False)
                (linear2): Linear(in_features=1024, out_features=64, bias=True)
                (dropout3): Dropout(p=0.1, inplace=False)
                (norm2): LayerNorm((64,), eps=1e-05, elementwise_affine=True)
              )
              (2): DeformableTransformerEncoderLayer(
                (self_attn): MSDeformAttn(
                  (sampling_offsets): Linear(in_features=64, out_features=128, bias=True)
                  (attention_weights): Linear(in_features=64, out_features=64, bias=True)
                  (value_proj): Linear(in_features=64, out_features=64, bias=True)
                  (output_proj): Linear(in_features=64, out_features=64, bias=True)
                )
                (dropout1): Dropout(p=0.1, inplace=False)
                (norm1): LayerNorm((64,), eps=1e-05, elementwise_affine=True)
                (linear1): Linear(in_features=64, out_features=1024, bias=True)
                (dropout2): Dropout(p=0.1, inplace=False)
                (linear2): Linear(in_features=1024, out_features=64, bias=True)
                (dropout3): Dropout(p=0.1, inplace=False)
                (norm2): LayerNorm((64,), eps=1e-05, elementwise_affine=True)
              )
              (3): DeformableTransformerEncoderLayer(
                (self_attn): MSDeformAttn(
                  (sampling_offsets): Linear(in_features=64, out_features=128, bias=True)
                  (attention_weights): Linear(in_features=64, out_features=64, bias=True)
                  (value_proj): Linear(in_features=64, out_features=64, bias=True)
                  (output_proj): Linear(in_features=64, out_features=64, bias=True)
                )
                (dropout1): Dropout(p=0.1, inplace=False)
                (norm1): LayerNorm((64,), eps=1e-05, elementwise_affine=True)
                (linear1): Linear(in_features=64, out_features=1024, bias=True)
                (dropout2): Dropout(p=0.1, inplace=False)
                (linear2): Linear(in_features=1024, out_features=64, bias=True)
                (dropout3): Dropout(p=0.1, inplace=False)
                (norm2): LayerNorm((64,), eps=1e-05, elementwise_affine=True)
              )
            )
            (lidar_attns): ModuleList(
              (0): LocalTransformer(
                (sampler): Points_Sampler(
                  (samplers): ModuleList(
                    (0): DFPS_Sampler()
                  )
                )
                (grouper): QueryAndGroup()
                (pe): Sequential(
                  (0): ConvModule(
                    (conv): Conv2d(3, 32, kernel_size=(1, 1), stride=(1, 1), bias=False)
                    (bn): BatchNorm2d(32, eps=1e-05, momentum=0.1, affine=True, track_running_stats=True)
                    (activate): ReLU(inplace=True)
                  )
                  (1): ConvModule(
                    (conv): Conv2d(32, 64, kernel_size=(1, 1), stride=(1, 1))
                  )
                )
                (chunk): TransformerEncoder(
                  (layers): ModuleList(
                    (0): TransformerEncoderLayerPreNorm(
                      (self_attn): MultiheadAttention(
                        (out_proj): _LinearWithBias(in_features=64, out_features=64, bias=True)
                      )
                      (linear1): Linear(in_features=64, out_features=128, bias=True)
                      (dropout): Dropout(p=0.0, inplace=True)
                      (linear2): Linear(in_features=128, out_features=64, bias=True)
                      (norm1): LayerNorm((64,), eps=1e-05, elementwise_affine=True)
                      (norm2): LayerNorm((64,), eps=1e-05, elementwise_affine=True)
                      (dropout1): Dropout(p=0.0, inplace=True)
                      (dropout2): Dropout(p=0.0, inplace=True)
                      (activation): ReLU(inplace=True)
                    )
                    (1): TransformerEncoderLayerPreNorm(
                      (self_attn): MultiheadAttention(
                        (out_proj): _LinearWithBias(in_features=64, out_features=64, bias=True)
                      )
                      (linear1): Linear(in_features=64, out_features=128, bias=True)
                      (dropout): Dropout(p=0.0, inplace=True)
                      (linear2): Linear(in_features=128, out_features=64, bias=True)
                      (norm1): LayerNorm((64,), eps=1e-05, elementwise_affine=True)
                      (norm2): LayerNorm((64,), eps=1e-05, elementwise_affine=True)
                      (dropout1): Dropout(p=0.0, inplace=True)
                      (dropout2): Dropout(p=0.0, inplace=True)
                      (activation): ReLU(inplace=True)
                    )
                  )
                )
              )
              (1): LocalTransformer(
                (sampler): Points_Sampler(
                  (samplers): ModuleList(
                    (0): DFPS_Sampler()
                  )
                )
                (grouper): QueryAndGroup()
                (pe): Sequential(
                  (0): ConvModule(
                    (conv): Conv2d(3, 32, kernel_size=(1, 1), stride=(1, 1), bias=False)
                    (bn): BatchNorm2d(32, eps=1e-05, momentum=0.1, affine=True, track_running_stats=True)
                    (activate): ReLU(inplace=True)
                  )
                  (1): ConvModule(
                    (conv): Conv2d(32, 64, kernel_size=(1, 1), stride=(1, 1))
                  )
                )
                (chunk): TransformerEncoder(
                  (layers): ModuleList(
                    (0): TransformerEncoderLayerPreNorm(
                      (self_attn): MultiheadAttention(
                        (out_proj): _LinearWithBias(in_features=64, out_features=64, bias=True)
                      )
                      (linear1): Linear(in_features=64, out_features=128, bias=True)
                      (dropout): Dropout(p=0.0, inplace=True)
                      (linear2): Linear(in_features=128, out_features=64, bias=True)
                      (norm1): LayerNorm((64,), eps=1e-05, elementwise_affine=True)
                      (norm2): LayerNorm((64,), eps=1e-05, elementwise_affine=True)
                      (dropout1): Dropout(p=0.0, inplace=True)
                      (dropout2): Dropout(p=0.0, inplace=True)
                      (activation): ReLU(inplace=True)
                    )
                    (1): TransformerEncoderLayerPreNorm(
                      (self_attn): MultiheadAttention(
                        (out_proj): _LinearWithBias(in_features=64, out_features=64, bias=True)
                      )
                      (linear1): Linear(in_features=64, out_features=128, bias=True)
                      (dropout): Dropout(p=0.0, inplace=True)
                      (linear2): Linear(in_features=128, out_features=64, bias=True)
                      (norm1): LayerNorm((64,), eps=1e-05, elementwise_affine=True)
                      (norm2): LayerNorm((64,), eps=1e-05, elementwise_affine=True)
                      (dropout1): Dropout(p=0.0, inplace=True)
                      (dropout2): Dropout(p=0.0, inplace=True)
                      (activation): ReLU(inplace=True)
                    )
                  )
                )
              )
              (2): LocalTransformer(
                (sampler): Points_Sampler(
                  (samplers): ModuleList(
                    (0): DFPS_Sampler()
                  )
                )
                (grouper): QueryAndGroup()
                (pe): Sequential(
                  (0): ConvModule(
                    (conv): Conv2d(3, 32, kernel_size=(1, 1), stride=(1, 1), bias=False)
                    (bn): BatchNorm2d(32, eps=1e-05, momentum=0.1, affine=True, track_running_stats=True)
                    (activate): ReLU(inplace=True)
                  )
                  (1): ConvModule(
                    (conv): Conv2d(32, 64, kernel_size=(1, 1), stride=(1, 1))
                  )
                )
                (chunk): TransformerEncoder(
                  (layers): ModuleList(
                    (0): TransformerEncoderLayerPreNorm(
                      (self_attn): MultiheadAttention(
                        (out_proj): _LinearWithBias(in_features=64, out_features=64, bias=True)
                      )
                      (linear1): Linear(in_features=64, out_features=128, bias=True)
                      (dropout): Dropout(p=0.0, inplace=True)
                      (linear2): Linear(in_features=128, out_features=64, bias=True)
                      (norm1): LayerNorm((64,), eps=1e-05, elementwise_affine=True)
                      (norm2): LayerNorm((64,), eps=1e-05, elementwise_affine=True)
                      (dropout1): Dropout(p=0.0, inplace=True)
                      (dropout2): Dropout(p=0.0, inplace=True)
                      (activation): ReLU(inplace=True)
                    )
                    (1): TransformerEncoderLayerPreNorm(
                      (self_attn): MultiheadAttention(
                        (out_proj): _LinearWithBias(in_features=64, out_features=64, bias=True)
                      )
                      (linear1): Linear(in_features=64, out_features=128, bias=True)
                      (dropout): Dropout(p=0.0, inplace=True)
                      (linear2): Linear(in_features=128, out_features=64, bias=True)
                      (norm1): LayerNorm((64,), eps=1e-05, elementwise_affine=True)
                      (norm2): LayerNorm((64,), eps=1e-05, elementwise_affine=True)
                      (dropout1): Dropout(p=0.0, inplace=True)
                      (dropout2): Dropout(p=0.0, inplace=True)
                      (activation): ReLU(inplace=True)
                    )
                  )
                )
              )
              (3): LocalTransformer(
                (sampler): Points_Sampler(
                  (samplers): ModuleList(
                    (0): DFPS_Sampler()
                  )
                )
                (grouper): QueryAndGroup()
                (pe): Sequential(
                  (0): ConvModule(
                    (conv): Conv2d(3, 32, kernel_size=(1, 1), stride=(1, 1), bias=False)
                    (bn): BatchNorm2d(32, eps=1e-05, momentum=0.1, affine=True, track_running_stats=True)
                    (activate): ReLU(inplace=True)
                  )
                  (1): ConvModule(
                    (conv): Conv2d(32, 64, kernel_size=(1, 1), stride=(1, 1))
                  )
                )
                (chunk): TransformerEncoder(
                  (layers): ModuleList(
                    (0): TransformerEncoderLayerPreNorm(
                      (self_attn): MultiheadAttention(
                        (out_proj): _LinearWithBias(in_features=64, out_features=64, bias=True)
                      )
                      (linear1): Linear(in_features=64, out_features=128, bias=True)
                      (dropout): Dropout(p=0.0, inplace=True)
                      (linear2): Linear(in_features=128, out_features=64, bias=True)
                      (norm1): LayerNorm((64,), eps=1e-05, elementwise_affine=True)
                      (norm2): LayerNorm((64,), eps=1e-05, elementwise_affine=True)
                      (dropout1): Dropout(p=0.0, inplace=True)
                      (dropout2): Dropout(p=0.0, inplace=True)
                      (activation): ReLU(inplace=True)
                    )
                    (1): TransformerEncoderLayerPreNorm(
                      (self_attn): MultiheadAttention(
                        (out_proj): _LinearWithBias(in_features=64, out_features=64, bias=True)
                      )
                      (linear1): Linear(in_features=64, out_features=128, bias=True)
                      (dropout): Dropout(p=0.0, inplace=True)
                      (linear2): Linear(in_features=128, out_features=64, bias=True)
                      (norm1): LayerNorm((64,), eps=1e-05, elementwise_affine=True)
                      (norm2): LayerNorm((64,), eps=1e-05, elementwise_affine=True)
                      (dropout1): Dropout(p=0.0, inplace=True)
                      (dropout2): Dropout(p=0.0, inplace=True)
                      (activation): ReLU(inplace=True)
                    )
                  )
                )
              )
            )
          )
        )
        (input_proj): ModuleList(
          (0): Sequential(
            (0): Conv2d(256, 64, kernel_size=(1, 1), stride=(1, 1))
            (1): GroupNorm(32, 64, eps=1e-05, affine=True)
          )
          (1): Sequential(
            (0): Conv2d(512, 64, kernel_size=(1, 1), stride=(1, 1))
            (1): GroupNorm(32, 64, eps=1e-05, affine=True)
          )
        )
        (q_position_embedding): PositionEmbeddingSineSparseDepth()
        (v_position_embedding): PositionEmbeddingSine()
      )
      (iactr): BasicGatev3(
        (sigmoid): Sigmoid()
      )
      (conv1): SparseSequential(
        (0): SparseSequential(
          (0): SubMConv3d(16, 16, kernel_size=[3, 3, 3], stride=[1, 1, 1], padding=[0, 0, 0], dilation=[1, 1, 1], output_padding=[0, 0, 0], bias=False, algo=ConvAlgo.MaskImplicitGemm)
          (1): BatchNorm1d(16, eps=0.001, momentum=0.01, affine=True, track_running_stats=True)
          (2): ReLU()
        )
      )
      (conv2): SparseSequential(
        (0): SparseSequential(
          (0): SparseConv3d(16, 32, kernel_size=[3, 3, 3], stride=[2, 2, 2], padding=[1, 1, 1], dilation=[1, 1, 1], output_padding=[0, 0, 0], bias=False, algo=ConvAlgo.MaskImplicitGemm)
          (1): BatchNorm1d(32, eps=0.001, momentum=0.01, affine=True, track_running_stats=True)
          (2): ReLU()
        )
        (1): SparseSequential(
          (0): SubMConv3d(32, 32, kernel_size=[3, 3, 3], stride=[1, 1, 1], padding=[0, 0, 0], dilation=[1, 1, 1], output_padding=[0, 0, 0], bias=False, algo=ConvAlgo.MaskImplicitGemm)
          (1): BatchNorm1d(32, eps=0.001, momentum=0.01, affine=True, track_running_stats=True)
          (2): ReLU()
        )
        (2): SparseSequential(
          (0): SubMConv3d(32, 32, kernel_size=[3, 3, 3], stride=[1, 1, 1], padding=[0, 0, 0], dilation=[1, 1, 1], output_padding=[0, 0, 0], bias=False, algo=ConvAlgo.MaskImplicitGemm)
          (1): BatchNorm1d(32, eps=0.001, momentum=0.01, affine=True, track_running_stats=True)
          (2): ReLU()
        )
      )
      (conv3): SparseSequential(
        (0): SparseSequential(
          (0): SparseConv3d(32, 64, kernel_size=[3, 3, 3], stride=[2, 2, 2], padding=[1, 1, 1], dilation=[1, 1, 1], output_padding=[0, 0, 0], bias=False, algo=ConvAlgo.MaskImplicitGemm)
          (1): BatchNorm1d(64, eps=0.001, momentum=0.01, affine=True, track_running_stats=True)
          (2): ReLU()
        )
        (1): SparseSequential(
          (0): SubMConv3d(64, 64, kernel_size=[3, 3, 3], stride=[1, 1, 1], padding=[0, 0, 0], dilation=[1, 1, 1], output_padding=[0, 0, 0], bias=False, algo=ConvAlgo.MaskImplicitGemm)
          (1): BatchNorm1d(64, eps=0.001, momentum=0.01, affine=True, track_running_stats=True)
          (2): ReLU()
        )
        (2): SparseSequential(
          (0): SubMConv3d(64, 64, kernel_size=[3, 3, 3], stride=[1, 1, 1], padding=[0, 0, 0], dilation=[1, 1, 1], output_padding=[0, 0, 0], bias=False, algo=ConvAlgo.MaskImplicitGemm)
          (1): BatchNorm1d(64, eps=0.001, momentum=0.01, affine=True, track_running_stats=True)
          (2): ReLU()
        )
      )
      (conv4): SparseSequential(
        (0): SparseSequential(
          (0): SparseConv3d(64, 64, kernel_size=[3, 3, 3], stride=[2, 2, 2], padding=[0, 1, 1], dilation=[1, 1, 1], output_padding=[0, 0, 0], bias=False, algo=ConvAlgo.MaskImplicitGemm)
          (1): BatchNorm1d(64, eps=0.001, momentum=0.01, affine=True, track_running_stats=True)
          (2): ReLU()
        )
        (1): SparseSequential(
          (0): SubMConv3d(64, 64, kernel_size=[3, 3, 3], stride=[1, 1, 1], padding=[0, 0, 0], dilation=[1, 1, 1], output_padding=[0, 0, 0], bias=False, algo=ConvAlgo.MaskImplicitGemm)
          (1): BatchNorm1d(64, eps=0.001, momentum=0.01, affine=True, track_running_stats=True)
          (2): ReLU()
        )
        (2): SparseSequential(
          (0): SubMConv3d(64, 64, kernel_size=[3, 3, 3], stride=[1, 1, 1], padding=[0, 0, 0], dilation=[1, 1, 1], output_padding=[0, 0, 0], bias=False, algo=ConvAlgo.MaskImplicitGemm)
          (1): BatchNorm1d(64, eps=0.001, momentum=0.01, affine=True, track_running_stats=True)
          (2): ReLU()
        )
      )
      (conv_out): SparseSequential(
        (0): SparseConv3d(64, 128, kernel_size=[3, 1, 1], stride=[2, 1, 1], padding=[0, 0, 0], dilation=[1, 1, 1], output_padding=[0, 0, 0], bias=False, algo=ConvAlgo.MaskImplicitGemm)
        (1): BatchNorm1d(128, eps=0.001, momentum=0.01, affine=True, track_running_stats=True)
        (2): ReLU()
      )
    )
    (map_to_bev_module): HeightCompression()
    (pfe): VoxelSetAbstraction(
      (SA_layers): ModuleList(
        (0): StackSAModuleMSG(
          (groupers): ModuleList(
            (0): QueryAndGroup()
            (1): QueryAndGroup()
          )
          (mlps): ModuleList(
            (0): Sequential(
              (0): Conv2d(19, 16, kernel_size=(1, 1), stride=(1, 1), bias=False)
              (1): BatchNorm2d(16, eps=1e-05, momentum=0.1, affine=True, track_running_stats=True)
              (2): ReLU()
              (3): Conv2d(16, 16, kernel_size=(1, 1), stride=(1, 1), bias=False)
              (4): BatchNorm2d(16, eps=1e-05, momentum=0.1, affine=True, track_running_stats=True)
              (5): ReLU()
            )
            (1): Sequential(
              (0): Conv2d(19, 16, kernel_size=(1, 1), stride=(1, 1), bias=False)
              (1): BatchNorm2d(16, eps=1e-05, momentum=0.1, affine=True, track_running_stats=True)
              (2): ReLU()
              (3): Conv2d(16, 16, kernel_size=(1, 1), stride=(1, 1), bias=False)
              (4): BatchNorm2d(16, eps=1e-05, momentum=0.1, affine=True, track_running_stats=True)
              (5): ReLU()
            )
          )
        )
        (1): StackSAModuleMSG(
          (groupers): ModuleList(
            (0): QueryAndGroup()
            (1): QueryAndGroup()
          )
          (mlps): ModuleList(
            (0): Sequential(
              (0): Conv2d(35, 32, kernel_size=(1, 1), stride=(1, 1), bias=False)
              (1): BatchNorm2d(32, eps=1e-05, momentum=0.1, affine=True, track_running_stats=True)
              (2): ReLU()
              (3): Conv2d(32, 32, kernel_size=(1, 1), stride=(1, 1), bias=False)
              (4): BatchNorm2d(32, eps=1e-05, momentum=0.1, affine=True, track_running_stats=True)
              (5): ReLU()
            )
            (1): Sequential(
              (0): Conv2d(35, 32, kernel_size=(1, 1), stride=(1, 1), bias=False)
              (1): BatchNorm2d(32, eps=1e-05, momentum=0.1, affine=True, track_running_stats=True)
              (2): ReLU()
              (3): Conv2d(32, 32, kernel_size=(1, 1), stride=(1, 1), bias=False)
              (4): BatchNorm2d(32, eps=1e-05, momentum=0.1, affine=True, track_running_stats=True)
              (5): ReLU()
            )
          )
        )
        (2): StackSAModuleMSG(
          (groupers): ModuleList(
            (0): QueryAndGroup()
            (1): QueryAndGroup()
          )
          (mlps): ModuleList(
            (0): Sequential(
              (0): Conv2d(67, 64, kernel_size=(1, 1), stride=(1, 1), bias=False)
              (1): BatchNorm2d(64, eps=1e-05, momentum=0.1, affine=True, track_running_stats=True)
              (2): ReLU()
              (3): Conv2d(64, 64, kernel_size=(1, 1), stride=(1, 1), bias=False)
              (4): BatchNorm2d(64, eps=1e-05, momentum=0.1, affine=True, track_running_stats=True)
              (5): ReLU()
            )
            (1): Sequential(
              (0): Conv2d(67, 64, kernel_size=(1, 1), stride=(1, 1), bias=False)
              (1): BatchNorm2d(64, eps=1e-05, momentum=0.1, affine=True, track_running_stats=True)
              (2): ReLU()
              (3): Conv2d(64, 64, kernel_size=(1, 1), stride=(1, 1), bias=False)
              (4): BatchNorm2d(64, eps=1e-05, momentum=0.1, affine=True, track_running_stats=True)
              (5): ReLU()
            )
          )
        )
        (3): StackSAModuleMSG(
          (groupers): ModuleList(
            (0): QueryAndGroup()
            (1): QueryAndGroup()
          )
          (mlps): ModuleList(
            (0): Sequential(
              (0): Conv2d(67, 64, kernel_size=(1, 1), stride=(1, 1), bias=False)
              (1): BatchNorm2d(64, eps=1e-05, momentum=0.1, affine=True, track_running_stats=True)
              (2): ReLU()
              (3): Conv2d(64, 64, kernel_size=(1, 1), stride=(1, 1), bias=False)
              (4): BatchNorm2d(64, eps=1e-05, momentum=0.1, affine=True, track_running_stats=True)
              (5): ReLU()
            )
            (1): Sequential(
              (0): Conv2d(67, 64, kernel_size=(1, 1), stride=(1, 1), bias=False)
              (1): BatchNorm2d(64, eps=1e-05, momentum=0.1, affine=True, track_running_stats=True)
              (2): ReLU()
              (3): Conv2d(64, 64, kernel_size=(1, 1), stride=(1, 1), bias=False)
              (4): BatchNorm2d(64, eps=1e-05, momentum=0.1, affine=True, track_running_stats=True)
              (5): ReLU()
            )
          )
        )
      )
      (SA_rawpoints): StackSAModuleMSG(
        (groupers): ModuleList(
          (0): QueryAndGroup()
          (1): QueryAndGroup()
        )
        (mlps): ModuleList(
          (0): Sequential(
            (0): Conv2d(4, 16, kernel_size=(1, 1), stride=(1, 1), bias=False)
            (1): BatchNorm2d(16, eps=1e-05, momentum=0.1, affine=True, track_running_stats=True)
            (2): ReLU()
            (3): Conv2d(16, 16, kernel_size=(1, 1), stride=(1, 1), bias=False)
            (4): BatchNorm2d(16, eps=1e-05, momentum=0.1, affine=True, track_running_stats=True)
            (5): ReLU()
          )
          (1): Sequential(
            (0): Conv2d(4, 16, kernel_size=(1, 1), stride=(1, 1), bias=False)
            (1): BatchNorm2d(16, eps=1e-05, momentum=0.1, affine=True, track_running_stats=True)
            (2): ReLU()
            (3): Conv2d(16, 16, kernel_size=(1, 1), stride=(1, 1), bias=False)
            (4): BatchNorm2d(16, eps=1e-05, momentum=0.1, affine=True, track_running_stats=True)
            (5): ReLU()
          )
        )
      )
      (vsa_point_feature_fusion): Sequential(
        (0): Linear(in_features=640, out_features=128, bias=False)
        (1): BatchNorm1d(128, eps=1e-05, momentum=0.1, affine=True, track_running_stats=True)
        (2): ReLU()
      )
    )
    (backbone_2d): BaseBEVBackbone(
      (blocks): ModuleList(
        (0): Sequential(
          (0): ZeroPad2d(padding=(1, 1, 1, 1), value=0.0)
          (1): Conv2d(256, 128, kernel_size=(3, 3), stride=(1, 1), bias=False)
          (2): BatchNorm2d(128, eps=0.001, momentum=0.01, affine=True, track_running_stats=True)
          (3): ReLU()
          (4): Conv2d(128, 128, kernel_size=(3, 3), stride=(1, 1), padding=(1, 1), bias=False)
          (5): BatchNorm2d(128, eps=0.001, momentum=0.01, affine=True, track_running_stats=True)
          (6): ReLU()
          (7): Conv2d(128, 128, kernel_size=(3, 3), stride=(1, 1), padding=(1, 1), bias=False)
          (8): BatchNorm2d(128, eps=0.001, momentum=0.01, affine=True, track_running_stats=True)
          (9): ReLU()
          (10): Conv2d(128, 128, kernel_size=(3, 3), stride=(1, 1), padding=(1, 1), bias=False)
          (11): BatchNorm2d(128, eps=0.001, momentum=0.01, affine=True, track_running_stats=True)
          (12): ReLU()
          (13): Conv2d(128, 128, kernel_size=(3, 3), stride=(1, 1), padding=(1, 1), bias=False)
          (14): BatchNorm2d(128, eps=0.001, momentum=0.01, affine=True, track_running_stats=True)
          (15): ReLU()
          (16): Conv2d(128, 128, kernel_size=(3, 3), stride=(1, 1), padding=(1, 1), bias=False)
          (17): BatchNorm2d(128, eps=0.001, momentum=0.01, affine=True, track_running_stats=True)
          (18): ReLU()
        )
        (1): Sequential(
          (0): ZeroPad2d(padding=(1, 1, 1, 1), value=0.0)
          (1): Conv2d(128, 256, kernel_size=(3, 3), stride=(2, 2), bias=False)
          (2): BatchNorm2d(256, eps=0.001, momentum=0.01, affine=True, track_running_stats=True)
          (3): ReLU()
          (4): Conv2d(256, 256, kernel_size=(3, 3), stride=(1, 1), padding=(1, 1), bias=False)
          (5): BatchNorm2d(256, eps=0.001, momentum=0.01, affine=True, track_running_stats=True)
          (6): ReLU()
          (7): Conv2d(256, 256, kernel_size=(3, 3), stride=(1, 1), padding=(1, 1), bias=False)
          (8): BatchNorm2d(256, eps=0.001, momentum=0.01, affine=True, track_running_stats=True)
          (9): ReLU()
          (10): Conv2d(256, 256, kernel_size=(3, 3), stride=(1, 1), padding=(1, 1), bias=False)
          (11): BatchNorm2d(256, eps=0.001, momentum=0.01, affine=True, track_running_stats=True)
          (12): ReLU()
          (13): Conv2d(256, 256, kernel_size=(3, 3), stride=(1, 1), padding=(1, 1), bias=False)
          (14): BatchNorm2d(256, eps=0.001, momentum=0.01, affine=True, track_running_stats=True)
          (15): ReLU()
          (16): Conv2d(256, 256, kernel_size=(3, 3), stride=(1, 1), padding=(1, 1), bias=False)
          (17): BatchNorm2d(256, eps=0.001, momentum=0.01, affine=True, track_running_stats=True)
          (18): ReLU()
        )
      )
      (deblocks): ModuleList(
        (0): Sequential(
          (0): ConvTranspose2d(128, 256, kernel_size=(1, 1), stride=(1, 1), bias=False)
          (1): BatchNorm2d(256, eps=0.001, momentum=0.01, affine=True, track_running_stats=True)
          (2): ReLU()
        )
        (1): Sequential(
          (0): ConvTranspose2d(256, 256, kernel_size=(2, 2), stride=(2, 2), bias=False)
          (1): BatchNorm2d(256, eps=0.001, momentum=0.01, affine=True, track_running_stats=True)
          (2): ReLU()
        )
      )
    )
    (dense_head): AnchorHeadSingle(
      (cls_loss_func): SigmoidFocalClassificationLoss()
      (reg_loss_func): WeightedSmoothL1Loss()
      (dir_loss_func): WeightedCrossEntropyLoss()
      (conv_cls): Conv2d(512, 18, kernel_size=(1, 1), stride=(1, 1))
      (conv_box): Conv2d(512, 42, kernel_size=(1, 1), stride=(1, 1))
      (conv_dir_cls): Conv2d(512, 12, kernel_size=(1, 1), stride=(1, 1))
    )
    (point_head): PointHeadSimple(
      (cls_loss_func): SigmoidFocalClassificationLoss()
      (cls_layers): Sequential(
        (0): Linear(in_features=640, out_features=256, bias=False)
        (1): BatchNorm1d(256, eps=1e-05, momentum=0.1, affine=True, track_running_stats=True)
        (2): ReLU()
        (3): Linear(in_features=256, out_features=256, bias=False)
        (4): BatchNorm1d(256, eps=1e-05, momentum=0.1, affine=True, track_running_stats=True)
        (5): ReLU()
        (6): Linear(in_features=256, out_features=1, bias=True)
      )
    )
    (roi_head): PVRCNNHead(
      (proposal_target_layer): ProposalTargetLayer()
      (reg_loss_func): WeightedSmoothL1Loss()
      (roi_grid_pool_layer): StackSAModuleMSG(
        (groupers): ModuleList(
          (0): QueryAndGroup()
          (1): QueryAndGroup()
        )
        (mlps): ModuleList(
          (0): Sequential(
            (0): Conv2d(131, 64, kernel_size=(1, 1), stride=(1, 1), bias=False)
            (1): BatchNorm2d(64, eps=1e-05, momentum=0.1, affine=True, track_running_stats=True)
            (2): ReLU()
            (3): Conv2d(64, 64, kernel_size=(1, 1), stride=(1, 1), bias=False)
            (4): BatchNorm2d(64, eps=1e-05, momentum=0.1, affine=True, track_running_stats=True)
            (5): ReLU()
          )
          (1): Sequential(
            (0): Conv2d(131, 64, kernel_size=(1, 1), stride=(1, 1), bias=False)
            (1): BatchNorm2d(64, eps=1e-05, momentum=0.1, affine=True, track_running_stats=True)
            (2): ReLU()
            (3): Conv2d(64, 64, kernel_size=(1, 1), stride=(1, 1), bias=False)
            (4): BatchNorm2d(64, eps=1e-05, momentum=0.1, affine=True, track_running_stats=True)
            (5): ReLU()
          )
        )
      )
      (shared_fc_layer): Sequential(
        (0): Conv1d(27648, 256, kernel_size=(1,), stride=(1,), bias=False)
        (1): BatchNorm1d(256, eps=1e-05, momentum=0.1, affine=True, track_running_stats=True)
        (2): ReLU()
        (3): Dropout(p=0.3, inplace=False)
        (4): Conv1d(256, 256, kernel_size=(1,), stride=(1,), bias=False)
        (5): BatchNorm1d(256, eps=1e-05, momentum=0.1, affine=True, track_running_stats=True)
        (6): ReLU()
      )
      (cls_layers): Sequential(
        (0): Conv1d(256, 256, kernel_size=(1,), stride=(1,), bias=False)
        (1): BatchNorm1d(256, eps=1e-05, momentum=0.1, affine=True, track_running_stats=True)
        (2): ReLU()
        (3): Dropout(p=0.3, inplace=False)
        (4): Conv1d(256, 256, kernel_size=(1,), stride=(1,), bias=False)
        (5): BatchNorm1d(256, eps=1e-05, momentum=0.1, affine=True, track_running_stats=True)
        (6): ReLU()
        (7): Conv1d(256, 1, kernel_size=(1,), stride=(1,))
      )
      (reg_layers): Sequential(
        (0): Conv1d(256, 256, kernel_size=(1,), stride=(1,), bias=False)
        (1): BatchNorm1d(256, eps=1e-05, momentum=0.1, affine=True, track_running_stats=True)
        (2): ReLU()
        (3): Dropout(p=0.3, inplace=False)
        (4): Conv1d(256, 256, kernel_size=(1,), stride=(1,), bias=False)
        (5): BatchNorm1d(256, eps=1e-05, momentum=0.1, affine=True, track_running_stats=True)
        (6): ReLU()
        (7): Conv1d(256, 7, kernel_size=(1,), stride=(1,))
      )
    )
    (dense_head_3d): None
  )
)
2022-06-07 12:40:40,094   INFO  **********************Start training cfgs/kitti_models/pv_rcnn_mm_mvx+actrv2_attnv3(run1)**********************
2022-06-08 15:49:14,785   INFO  **********************End training cfgs/kitti_models/pv_rcnn_mm_mvx+actrv2_attnv3(run1)**********************



2022-06-08 15:49:14,785   INFO  **********************Start evaluation cfgs/kitti_models/pv_rcnn_mm_mvx+actrv2_attnv3(run1)**********************
…
